…
, 64]], d_lr=1e-06, d_repeat_num=6, dropout=0.0, g_conv_dim=[256, 512, 1024], g_lr=1e-06, g_repeat_num=6, lambda_cls=1, lambda_gp=10, lambda_rec=10, log_dir='molgan/logs', log_step=10, lr_update_step=1000, mode='train', model_save_dir='molgan/models', model_save_step=10000, mol_data_dir='dataGAN/100nodes.sparsedataset', n_critic=5, num_iters=200000, num_iters_decay=100000, num_workers=1, post_method='softmax', result_dir='molgan/results', resume_iters=None, sample_dir='molgan/samples', sample_step=1000, test_iters=2000, use_tensorboard=False, z_dim=16)
Generator(
  (layers): Sequential(
    (0): Linear(in_features=16, out_features=256, bias=True)
    (1): Tanh()
    (2): Dropout(p=0.0, inplace)
    (3): Linear(in_features=256, out_features=512, bias=True)
    (4): Tanh()
    (5): Dropout(p=0.0, inplace)
    (6): Linear(in_features=512, out_features=1024, bias=True)
    (7): Tanh()
    (8): Dropout(p=0.0, inplace)
  )
  (edges_layer): Linear(in_features=1024, out_features=20000, bias=True)
  (nodes_layer): Linear(in_features=1024, out_features=400, bias=True)
  (dropoout): Dropout(p=0.0)
)
G
The number of parameters: 21571248
Discriminator(
  (gcn_layer): GraphConvolution(
    (linear1): Linear(in_features=4, out_features=128, bias=True)
    (linear2): Linear(in_features=128, out_features=64, bias=True)
    (dropout): Dropout(p=0.0)
  )
  (agg_layer): GraphAggregation(
    (sigmoid_linear): Sequential(
      (0): Linear(in_features=68, out_features=128, bias=True)
      (1): Sigmoid()
    )
    (tanh_linear): Sequential(
      (0): Linear(in_features=68, out_features=128, bias=True)
      (1): Tanh()
    )
    (dropout): Dropout(p=0.0)
  )
  (linear_layer): Sequential(
    (0): Linear(in_features=128, out_features=128, bias=True)
    (1): Dropout(p=0.0)
    (2): Linear(in_features=128, out_features=64, bias=True)
    (3): Dropout(p=0.0)
  )
  (output_layer): Linear(in_features=64, out_features=1, bias=True)
)
D
The number of parameters: 51393
Start training...
[Valid] 
[Valid] 
[Valid] 
[Valid] 
[Valid] 
[Valid] 
[Valid] 
[Valid] 
[Valid] 
[Valid] 
[Valid] 
[Valid] 
[Valid] 
[Valid] 
[Valid] 
[Valid] 
[Valid] 
[Valid] 
[Valid] 
[Valid] 
[Valid] 
[Valid] 
[Valid] 
[Valid] 
[Valid] 
[Valid] 
[Valid] 
[Valid] 
[Valid] 
[Valid] 
[Valid] 
[Valid] 
[Valid] 
[Valid] 
…
